models/best/wavenet.pth (torch, 247700 bytes, 3 tensors)

casualConv1D.conv1D.weight f4 [24, 256, 2]
000000 3b 9e f8 3d 49 8f ee 3c d1 93 c1 3d 06 bc 93 3d
       0.12139555 0.029121058 0.09452022 0.07213597
000010 fd 6f b8 bd 73 4c ef 3d 09 5c dd 3d 91 19 4e 3d
       -0.09005735 0.116845034 0.1080857 0.05031735
000020 29 70 bc 3b cc 0d a2 3d 06 0a 59 3d 81 45 1c 3d
       0.005750675 0.07912788 0.052988075 0.03815222
000030 48 c8 e6 bc a5 ae 24 be 98 d6 95 3d 3c 44 6e 3d
       -0.028171673 -0.16082247 0.07316321 0.058170542
000040 f5 96 7e bd 5d 18 a4 3c 36 f1 f6 3c 00 e5 f8 3d
       -0.062155683 0.020031149 0.030144315 0.12153053
000050 a4 42 f4 bb 60 07 34 bd 64 cd b5 3d a5 e6 7b 3d
       -0.0074542332 -0.043952346 0.08877066 0.061499257
000060 94 d7 ca 3c e4 a9 40 3e b4 90 5e 3c 9d 75 ae bd
       0.024760999 0.18814808 0.013584305 -0.08518527
000070 fb 91 07 bc 99 c2 ca 3d 7c 2d ba bd ad 49 3c 3e
       -0.008274551 0.09900398 -0.09090707 0.1838748
000080 6b d0 b6 3d e9 6a 10 3e 26 07 cc 3d 56 bf 64 bb
       0.08926471 0.14103283 0.09962301 -0.0034904084
000090 f3 30 14 3e 9d 35 07 3e 4a 19 37 be 91 3d 36 3e
       0.14471798 0.13204046 -0.17880741 0.17796923
0000a0 98 0e 5b 3e 4e 0e b1 3d d0 5d 53 3d 31 7d a1 3b
       0.21392286 0.086453065 0.05160314 0.004928254
0000b0 32 bd 98 bc c3 a4 e5 bd b1 e7 5a 3e 30 bc b2 3d
       -0.018644903 -0.112130664 0.21377446 0.087273
0000c0 3e 80 39 bd af 9c d4 bd 13 c3 77 bc f0 d9 3e 3d
       -0.045288317 -0.103814475 -0.015122193 0.04659456
0000d0 f5 fa 70 be d9 d1 7a 3d aa af ef bd 4e c4 48 be
       -0.23533233 0.061235283 -0.11703427 -0.19606134
0000e0 9d c0 0c 3e 4f 18 f4 3d cb bc 50 3d af 47 f5 3c
       0.13745351 0.11918699 0.050961297 0.029941408
0000f0 49 b4 af bd 77 2f 69 3e 94 90 f1 bd e2 27 a2 3d
       -0.085793085 0.22772013 -0.11795154 0.07917763
000100 65 8b e8 3a b7 6f dd bc 51 b2 d3 3c cb a5 26 3e
       0.0017741738 -0.027030809 0.025841864 0.16274182
000110 1d f0 e7 bd fe 20 26 bd 39 05 e5 bd 5f 6b a5 bd
       -0.11325095 -0.040558808 -0.11182637 -0.0807712
000120 fc 49 56 3d 84 fd 23 3e ce b5 aa 3d 22 ea 07 3e
       0.05231665 0.16014677 0.08335458 0.13272908
000130 b5 db d8 39 59 a7 84 3c 04 70 82 3e 2a 34 af 3b
       0.00041362425 0.016193079 0.25476086 0.0053467946
000140 bc d1 7f 3d 92 ba f6 3d 92 b3 8d 3d 55 4f 1a be
       0.062455878 0.12047304 0.06919016 -0.15069325
000150 7d 52 3c 3d d2 5a a2 3c 36 9c a4 3d 06 db 10 3e
       0.045977104 0.019818697 0.08037607 0.14146051
000160 98 b5 17 3e 3b 71 f8 3b d3 1f 33 3e 73 a6 b3 bc
       0.14815366 0.0075818575 0.17492609 -0.021929955
000170 56 c7 fc 3d 9e 13 85 3d 24 d6 70 3d e1 c0 eb bd
       0.12342708 0.06497882 0.05879797 -0.11511398
000180 27 32 8e be a7 6c 28 3d 93 c1 18 3e bb 1a 8b 3d
       -0.27772638 0.041119244 0.14917593 0.06792208
000190 e0 16 bf 3d 4d 03 46 3e 00 4c 68 be bc 05 88 3d
       0.09330535 0.19337197 -0.22685242 0.06641719
0001a0 df 2c 16 bd ca 35 12 3e dc 37 57 bd 98 ca 0d 3e
       -0.036663886 0.14278331 -0.052543506 0.13846815
0001b0 3e 02 3a bc 1c 33 7f bc de 32 18 be b0 b9 8e 3d
       -0.011353074 -0.01557615 -0.14863154 0.06969011
0001c0 18 12 73 3d 38 dd 78 be 44 2d 0c be 2e 07 b9 bd
       0.059343427 -0.24303138 -0.13689142 -0.090345725
0001d0 72 e0 7f 3d 06 79 16 be 6b 07 9b 3d 76 15 a7 3d
       0.062469907 -0.14694604 0.07569774 0.0815839
0001e0 50 14 2a be d8 e4 38 be 41 b0 f2 bd 2f c2 01 3d
       -0.16609311 -0.18056047 -0.11850024 0.03167933
0001f0 ee 68 73 3d 6c 65 e0 bc ea 8a 9f bd 2b ff d3 bc
       0.05942624 -0.027392112 -0.07790168 -0.02587851
000200 7b 41 63 bd 1b 42 74 3e 86 48 63 3e 5f 3e 43 3e
       -0.05548237 0.23853342 0.22195634 0.19066761
000210 e4 d0 30 be 2d b7 b3 3d a1 7c 57 3e d0 6d af 3d
       -0.17267185 0.087751724 0.21043636 0.08565867
000220 1c 06 58 be 9c 10 1a be 75 c6 26 3e 97 63 62 be
       -0.2109608 -0.15045398 0.16286643 -0.22108303
000230 2b a9 b1 3c cf 8e c3 3b e4 64 a3 3b b0 38 53 be
       0.02168711 0.005967952 0.0049863923 -0.20627093
000240 19 dd 6f bd f7 8d ca bc fa 5d a0 3d c3 27 a9 bd
       -0.058560465 -0.024725897 0.078304246 -0.08259537
000250 73 6c 12 bd 2f a5 78 be c0 97 0a 3e e4 50 70 3d
       -0.035747956 -0.24281763 0.1353445 0.058670893
000260 ff 5b 20 bd ca a9 a7 3d 6f 17 38 3e 56 07 11 be
       -0.039150234 0.081866816 0.17977689 -0.14162955
000270 ba db 38 be 50 f3 a7 3e 2d ce 1f be 35 64 cd 3d
       -0.18052569 0.3280282 -0.15605994 0.100288786
000280 4b 54 83 3c 41 58 fa 3d 46 fc 0e be b3 ef 91 3d
       0.016031405 0.12223864 -0.13963422 0.07125797
000290 7c de 9a bd fa 96 94 bd ad 01 d8 3b 43 b4 bc bd
       -0.07561967 -0.07255359 0.0065919966 -0.0921407
0002a0 3a 11 32 be 5f fe 7a 3d 5e 1c f9 bd d3 55 36 bd
       -0.17389384 0.061277743 -0.12163614 -0.044515442
0002b0 36 df 47 3c 67 cd 4f be 50 6a 70 3d f4 74 12 3e
       0.012199214 -0.20293199 0.058695138 0.14302427
0002c0 a4 1c a5 3d 7e 20 08 be 3f da e7 bd c9 0f 8e bd
       0.080621034 -0.13293645 -0.11320924 -0.069366045
0002d0 39 91 6a 3d 3b c5 f8 3d fc cf 6e 3e b9 01 08 3a
       0.0572674 0.12146994 0.23321527 0.0005188245
0002e0 56 75 09 3b 22 50 ec bd cc 39 00 3b f9 16 39 3e
       0.0020974479 -0.115387216 0.00195657 0.1807517
0002f0 97 1c 90 bd 9b cc 54 3d 64 f2 40 3e 76 ed 4e bb
       -0.07036703 0.05195294 0.18842465 -0.0031574643
000300 36 0b 1f 3e 90 1f 4c bd c9 97 03 be 7a b7 17 3d
       0.1553162 -0.049834788 -0.1285087 0.03704021
000310 bf 53 9a 3b aa 46 5b bd 17 53 a4 3e 17 05 3b 3c
       0.0047096903 -0.053534187 0.32094643 0.011414788
000320 eb e8 6b 3b 39 22 40 3d 5a 62 3a bc de 1f d6 bd
       0.0035996984 0.046907637 -0.011375988 -0.10455297
000330 f1 74 b0 bd ce e0 18 3e 20 18 dc 3d 18 0d d4 3d
       -0.08616055 0.14929506 0.10746789 0.1035406
000340 54 5f 1d 3d fc 22 a5 bd e1 53 ff bc a7 1a ab bc
       0.03842099 -0.08063313 -0.031167926 -0.020886732
000350 9e 63 3f bd 71 d3 c3 3e 08 57 97 3d 29 36 47 bd
       -0.04672586 0.38247254 0.07389647 -0.048635636
000360 71 31 34 3e 4a ad bf bb f1 fe 93 3e 22 c0 31 3d
       0.17596985 -0.005849515 0.28905442 0.043396123
000370 23 f3 a1 3e 37 62 70 3e 49 02 17 3e 41 b6 13 bd
       0.3163081 0.23474966 0.14746965 -0.036062483
000380 bc 53 80 bd 2c 4b 82 3d 38 86 00 be ee af 71 bd
       -0.06265971 0.06361994 -0.125512 -0.05900567
000390 73 01 50 3e e3 43 18 bd 98 70 74 3d 1c 77 e1 3d
       0.20313053 -0.037174117 0.05967769 0.110090464
0003a0 95 7d 2b be c2 e5 94 3d fa aa 07 3e 18 81 b7 bc
       -0.16747124 0.07270385 0.13248816 -0.022400424
0003b0 b7 52 ba 3d 3e fe 7f 3d cc 5d 94 3d 65 88 94 3d
       0.09097808 0.062498324 0.07244453 0.07252578
0003c0 10 65 36 bd 06 7f 86 bd 11 e1 28 be d5 6a b7 3d
       -0.044529974 -0.065671965 -0.16492106 0.089559235
0003d0 ef e5 e7 bd bd 28 56 3d 3c f6 2a bd 55 ab 8b bd
       -0.11323153 0.052284945 -0.041738734 -0.06819788
0003e0 11 47 89 3c a1 42 26 3e 6f 1d a9 bc f2 17 9b bd
       0.01675752 0.16236354 -0.020643918 -0.075729266
0003f0 73 42 d6 3d 30 e2 e1 3d f9 0f 44 3e df 7e 1c 3e
       0.10461893 0.1102947 0.19146718 0.15282772

denseLayer.conv1D.weight f4 [128, 128, 1]
000000 7b 3d b6 bd 60 8c 93 bd 11 5b 8d bd 2a 38 21 3d
       -0.08898445 -0.07204509 -0.06902135 0.039360203
000010 3f f1 46 3e e5 83 dc bd f1 d8 6f bd a2 30 2e bd
       0.19427966 -0.107673444 -0.0585565 -0.04252685
000020 6e 84 71 be 87 b0 85 3d 01 7e 91 3c e5 84 c2 bd
       -0.23585674 0.065278105 0.017760279 -0.09498004
000030 c0 ae 84 3e fc 34 0d bd d2 51 43 3e 62 0a 32 3d
       0.25914574 -0.034474358 0.1907418 0.043466933
000040 e3 2d a3 3d 58 58 83 3c 01 6a 94 3d 25 6e 3f bd
       0.079677366 0.016033337 0.07246781 -0.0467359
000050 49 11 8b bd 0d cd a5 3d ae b6 c8 bd 23 93 8b bd
       -0.06790406 0.08095751 -0.098004684 -0.068151735
000060 ef 11 5e be b4 20 62 bd 92 5b 47 be 2d 14 d8 bd
       -0.21686529 -0.05520697 -0.19468525 -0.10550723
000070 ff 88 27 be e4 72 60 be 6d 23 55 3d 92 e2 29 bd
       -0.16360854 -0.21918827 0.052035738 -0.04147584
000080 84 2d 2a 3c 29 54 07 3e 49 cf 14 3e 3f 90 2e bd
       0.010386828 0.13215698 0.14532198 -0.042618033
000090 19 78 99 3c 8b 04 9e bd ad f6 61 3d bf 9b 1b 3d
       0.018734025 -0.0771571 0.05516689 0.037990328
0000a0 21 22 93 be d0 4b e6 bd 66 c9 e4 3b b3 82 10 bd
       -0.28736976 -0.11244929 0.0069820164 -0.035280894
0000b0 7f 6a 11 3e 91 de 1e bd e4 a6 21 3d 0f df 03 3d
       0.14200781 -0.038786475 0.0394658 0.032195147
0000c0 e6 9a 68 3d 01 73 c9 bc 21 f8 73 3b 7a 5b 60 be
       0.056788348 -0.024590971 0.0037226754 -0.21909896
0000d0 41 a2 2e be 32 c3 1f be ef a7 3a bd fd 47 ed bd
       -0.17054082 -0.15601805 -0.04557031 -0.11585996
0000e0 92 bf 6b 3d 9a 6f 75 bd 39 17 85 bd 5c 38 d0 bc
       0.057555743 -0.059920885 -0.0649857 -0.0254175
0000f0 f0 d1 91 3c ca 9a fb 3c 16 78 31 3d 11 2f 3c be
       0.017800301 0.030713458 0.043327413 -0.1837733
000100 77 ba 2d be 2a 8d 5e 3d 7e b3 53 bd b3 1c e5 3a
       -0.16965662 0.054333843 -0.05168485 0.0017479867
000110 cf 72 d6 bd bc b6 f7 3d dd e7 dc 3e 00 fa a9 bc
       -0.10471117 0.12095401 0.43145648 -0.020749092
000120 a8 56 13 bd a1 5f 99 bc d6 51 b5 bd e8 fb 1f 3d
       -0.035971314 -0.018722357 -0.088534996 0.039058596
000130 df f1 54 bd cf 31 ab bd ef 6a 4c 3d 4c 33 7d 3b
       -0.05198848 -0.083591096 0.049906667 0.0038635312
000140 13 8b e1 bd c7 6a 9f bd 42 45 1a be 64 5f f3 bd
       -0.110128544 -0.07784038 -0.15065482 -0.11883429
000150 2a 2f 51 bd f5 4e 08 3d 0a 9f 96 3c 43 80 c3 bd
       -0.05107037 0.033278424 0.018386383 -0.09545948
000160 04 5d 6b 3e ba 35 65 bc 8b a8 04 3d 48 76 27 bc
       0.22984701 -0.01398986 0.032387298 -0.010221072
000170 52 db 84 3c ae 71 0c 3d 5f d8 03 bd 40 8a 04 3d
       0.016217861 0.0342881 -0.03218877 0.032358408
000180 c3 56 ff bd 34 66 08 3e ff d7 46 bd 83 83 0d be
       -0.1246772 0.13320237 -0.048545834 -0.13819699
000190 bd 6d 28 be 17 0c 7d 3d 3a e1 d0 be f1 7f 82 3b
       -0.16448112 0.061779108 -0.40796834 0.003982537
0001a0 6a ee f4 3e 9a 10 5e bd 02 4a fe bc ef 01 2d 3c
       0.47838145 -0.05421505 -0.031041149 0.010559543
0001b0 d4 b1 b7 3c ef 8b b1 3e 11 82 d2 bd 8b fb 03 be
       0.022423662 0.34677073 -0.102787144 -0.12888925
0001c0 b1 11 2e 3e 36 74 55 be 36 df 8b bd e0 a3 d8 bc
       0.16998936 -0.20845112 -0.068296835 -0.02644533
0001d0 ae e2 96 3d a0 16 8f bc 3d ba ec 3d 7a 8e 6d 3e
       0.073674545 -0.017466843 0.1155896 0.23198882
0001e0 b4 75 85 3d a9 a0 ca bc 96 c1 17 3f 82 39 ee bc
       0.06516591 -0.024734812 0.59279764 -0.029080156
0001f0 51 bf 89 bd 88 ee 5b be c0 5a 9b 3e d6 c1 c1 3c
       -0.06725944 -0.21477711 0.30342674 0.023651998
000200 12 a1 8f bd f7 b4 9b 3d 80 40 31 bc 0a 2c 4d 3d
       -0.070131436 0.07602876 -0.010818601 0.050090827
000210 8c 16 86 bc 00 18 19 ba d0 c1 86 3c d6 82 37 bd
       -0.016368173 -0.0005840063 0.016449839 -0.04480251
000220 90 e3 c9 3c 60 ef 82 3c 1e 90 37 bd 9d 09 ae 3d
       0.024644643 0.015983284 -0.044815175 0.08497927
000230 b9 a8 97 3d 64 fb f6 3c 40 f1 b7 3b 5a 1b 40 3d
       0.07405228 0.03014917 0.005613476 0.046901084
000240 ee f7 1f 3d 75 ff 30 bd d8 d5 d6 3c e4 47 8a bd
       0.039054804 -0.043212373 0.026225016 -0.06751993
000250 24 16 7d bd 79 8d 94 bd c0 c6 be 3a 71 37 9f bd
       -0.061788693 -0.07253546 0.0014555082 -0.077742465
000260 00 26 38 b9 eb 14 65 bd 7c 54 f3 3c 00 c2 9b 3b
       -0.00017561764 -0.055928152 0.029703371 0.004753351
000270 32 b2 19 3d cd bb b2 bd 8f e9 98 3d e8 b9 b5 3c
       0.037523456 -0.087272264 0.07466423 0.022183374
000280 30 0e 8c bd ec 10 a1 bc 8a 60 36 3d 40 d5 01 bb
       -0.068386436 -0.01966139 0.04452566 -0.0019810945
000290 3a aa 74 bd 64 9d e9 bc a4 12 e8 3c e2 23 aa bd
       -0.059732653 -0.028517433 0.028329201 -0.08307625
0002a0 70 70 bb 3b 40 e8 23 3c c0 1e be 3a 5a 17 6d 3d
       0.0057201907 0.010004103 0.0014505014 0.057883598
0002b0 90 e1 e5 bb 25 2b 50 bd a3 ce 82 3d 9b de 8e 3d
       -0.0070154145 -0.050822396 0.06387069 0.069760524
0002c0 ea 66 f7 bc f6 cd 45 3d 70 f5 ff bc 3d c1 b1 3d
       -0.03020044 0.048292123 -0.031244963 0.086794354
0002d0 82 07 52 3d 20 0c 36 bb 0f 04 8c 3d c8 a3 7e 3c
       0.05127669 -0.0027778223 0.068367116 0.015541978
0002e0 0b e7 82 bd de b1 1c 3d 88 33 0d 3c fc 55 9e 3c
       -0.06391724 0.038255565 0.008618243 0.01932811
0002f0 d4 78 0d 3d fc e6 ce bc 40 db 0c bc 7a eb 45 3d
       0.03453906 -0.025256626 -0.008597195 0.04832027
000300 09 d4 a6 3d 62 42 52 3d 00 b9 c9 3b b4 06 72 bd
       0.08145911 0.05133284 0.006156087 -0.059088424
000310 32 c8 37 3d ad 57 82 3d c5 88 85 3d d1 50 96 3d
       0.044868656 0.06364379 0.06520227 0.07339633
000320 66 59 10 bd 3f 9f ae bd 80 1f b8 3a c0 04 93 ba
       -0.035241507 -0.085264675 0.0014047474 -0.0011216626
000330 5c 70 80 3c 6d 11 9a bd f3 2b 1c bd 28 ba ff 3c
       0.015678577 -0.07522855 -0.03812785 0.031216696
000340 50 67 d9 3b 1d 5c 63 bd 63 f3 94 3d cc fb 81 bd
       0.0066346303 -0.055507768 0.07272985 -0.063468546
000350 f0 f1 91 bd f6 b5 5b 3d d3 a0 98 bd 00 e2 3f 39
       -0.07126224 0.05364033 -0.0745255 0.00018299371
000360 58 c7 57 bc b9 2f ad bd b8 a8 aa bc ef 42 a6 bd
       -0.013170086 -0.08456368 -0.020832404 -0.08118235
000370 c7 e3 33 bd 3c 03 7f bd e8 d3 d3 bc 2f f9 b0 3d
       -0.043918397 -0.062258944 -0.02585788 0.08641278
000380 f4 0a ec 3c 9f 27 50 bd 5e a6 37 bd 98 0f 28 bc
       0.028813817 -0.050819036 -0.044836394 -0.010257624
000390 3e 98 4d bd 22 5e 5c 3d f2 03 31 3d 3b b6 9c 3d
       -0.050194018 0.05380071 0.043216653 0.07651945
0003a0 74 83 7d bd 31 32 7d bd 66 7c b4 bd d2 f4 f2 bc
       -0.06189294 -0.061815444 -0.088127896 -0.029657755
0003b0 bc fe 59 bd ae f5 97 bd 9e 94 87 bd 89 ae ac bd
       -0.05322145 -0.074199066 -0.06620143 -0.084317274
0003c0 ca e3 d9 bc 90 64 5b 3c c0 68 0c 3c fc e7 a6 bc
       -0.026597876 0.013390675 0.008569896 -0.02037429
0003d0 57 f0 76 bd ef 72 a7 3d 00 51 8a bb a8 a7 02 bc
       -0.0602878 0.08176219 -0.0042210817 -0.007974543
0003e0 3c 18 c2 bc 97 72 85 3d d8 af 66 bc b3 17 3d bd
       -0.023693196 0.06515997 -0.01408001 -0.04616518
0003f0 6c 3e 9f bc f2 a2 7e bd 34 f5 a8 bd 8e 82 06 3d
       -0.019438945 -0.062167116 -0.08249894 0.03283935

denseLayer.conv2nD.weight f4 [256, 128, 1]
000000 c0 b3 72 bd 7c 00 a8 3c e0 9d 09 3c 9c c9 83 3c
       -0.059253454 0.020508043 0.008399457 0.016087346
000010 00 4d cf 3c b3 d4 93 3d 09 e5 ad bd 49 94 a2 3d
       0.025305271 0.072183035 -0.084909506 0.079384394
000020 f6 56 84 bd 4c 98 60 bd f8 ba 1d bc aa 44 31 3d
       -0.06461899 -0.05483274 -0.009627096 0.043278374
000030 de 26 ab bd f5 f9 97 3d 7e 39 7e 3d dd ee 93 3d
       -0.08357023 0.074207224 0.062066548 0.07223294
000040 0c ca 0b 3d f0 9e 1c bc a0 8c 2c bb 64 38 07 bd
       0.034128234 -0.009559378 -0.0026328936 -0.033012763
000050 ee 94 5c bd 6c 8e 86 3c 00 3d 50 3a 88 d5 1f 3c
       -0.053852968 0.016425334 0.000794366 0.0097555
000060 80 09 d1 ba f3 9c 43 bd 7e 08 56 3d c0 5f a1 bd
       -0.0015948266 -0.0477571 0.052254193 -0.07879591
000070 28 b1 fd 3c 8c 36 94 bd 58 14 dc bc 46 20 ed bc
       0.030968264 -0.072369665 -0.02686517 -0.028946053
000080 d3 e7 08 bd b3 a4 2f bd f0 85 36 bc 12 d2 39 3d
       -0.03342421 -0.04288168 -0.011140332 0.045366354
000090 5b db a1 3d f8 43 fc 3c 5f 7c 96 3d 00 80 23 b9
       0.07903167 0.030794129 0.07347941 -0.00015592575
0000a0 90 39 7f bd 94 f4 bc 3c e5 22 a7 3d b9 60 98 bd
       -0.062310755 0.023065843 0.081609525 -0.074403234
0000b0 94 ae 09 3d 30 0f a8 3b cf 04 82 3d 93 8b 95 3d
       0.033613756 0.0051287636 0.063485734 0.07302012
0000c0 a4 3a c2 bc 14 86 f9 3c 1c 13 d4 bc 30 93 a0 3c
       -0.023709603 0.030459441 -0.025888018 0.019601434
0000d0 b8 bd a0 bc c0 fe e0 ba 6e 58 9a bd 8a ac 7d 3d
       -0.019621715 -0.0017165765 -0.07536398 0.061932124
0000e0 36 f9 8e bd 58 21 b2 3c 04 f1 c9 bc 6e 23 d5 bc
       -0.06981127 0.021744415 -0.024651058 -0.02601787
0000f0 c0 c0 12 bc 60 f0 4d bc d2 f0 51 3d c2 d8 6b 3d
       -0.008957088 -0.012569517 0.051255055 0.057579763
000100 ae 00 81 bd 4b 44 63 bd 80 24 b2 bb 0a 63 db bc
       -0.06298958 -0.05548505 -0.00543648 -0.026780624
000110 54 f7 34 bd 9d 9d 8b 3d 50 3d 77 bd 02 10 2f bd
       -0.044181183 0.06817172 -0.060361207 -0.042739876
000120 d5 14 29 bd 5d 9f 99 bd 98 f1 99 bc 37 66 8c 3d
       -0.041279633 -0.07501099 -0.018791959 0.068554334
000130 18 ce 02 3d be 4d 7f 3d c1 1d 00 bd cf e0 43 bd
       0.031934828 0.06233 -0.031278376 -0.047821816
000140 28 36 e4 3c 32 4a 89 bd 86 a9 47 bd 17 b9 8d bd
       0.027857855 -0.06703605 -0.048745655 -0.06920069
000150 87 dd 98 3d 4e ed 13 3d e0 3f 83 bb 67 76 92 3d
       0.07464128 0.036114983 -0.004005417 0.0715149
000160 ca 75 7d 3d b6 0b 31 bd 9a 08 03 3d ca d6 b0 bd
       0.06187991 -0.04322406 0.031990625 -0.08634718
000170 59 b9 89 bd 3c 46 90 bd f4 72 af bd 03 5b 4d bd
       -0.067248054 -0.07044646 -0.085668474 -0.050135624
000180 f0 c5 d3 bb 9e 7a 80 bd d0 df ec bb 5f d1 88 3d
       -0.006462805 -0.06273387 -0.007228829 0.06680559
000190 d0 2e ed bb 27 6c 92 3d 60 39 d9 3c 74 a8 95 3c
       -0.0072382465 0.07149535 0.026516616 0.018268801
0001a0 2d d0 42 bd 20 a6 54 bc 18 51 73 3c f4 ff 95 bd
       -0.047561813 -0.01297906 0.014850877 -0.0732421
0001b0 b5 92 99 3d 9e 2f 07 bd a0 5b 80 3b ea 0e 9b bd
       0.07498685 -0.033004396 0.0039171726 -0.07571204
0001c0 80 48 84 bb 08 af 1f bc 00 c9 45 bc 6a 3f 96 bd
       -0.004036963 -0.009746321 -0.012071848 -0.07336314
0001d0 a8 fe 90 3c 68 66 c8 3c a0 f6 09 bb 2b a3 69 bd
       0.017699555 0.024462894 -0.002105154 -0.057040375
0001e0 7a 40 43 3d 61 94 09 bd d8 a1 65 3c ca 8b 65 bd
       0.04766891 -0.03358877 0.014015637 -0.056041516
0001f0 96 17 2e 3d 38 b7 d4 bc 80 61 dd ba 94 46 52 bd
       0.042502962 -0.025966272 -0.0016890019 -0.05133684
000200 d7 dd 2d bd c7 30 59 bd 30 ef f9 3b 0c 1b 9f 3c
       -0.04244789 -0.053025033 0.0076273903 0.019422077
000210 c0 25 d2 3b ea 4a f8 bc 08 37 ef 3c 3e d7 4f 3d
       0.0064131916 -0.03030916 0.029201046 0.05074238
000220 40 f0 4b 3c ed 49 a0 3d 1e 4f 43 3d 10 3f 20 bc
       0.012447417 0.078266 0.047682874 -0.00978066
000230 02 66 2c 3d 8f ec 92 3d da 2c 20 3d 20 ae 23 3c
       0.04208947 0.07174026 0.039105274 0.009990245
000240 92 3d 1d 3d a0 58 1f bb ae 1c 57 3d 36 ac 3c 3d
       0.038388796 -0.00243143 0.052517585 0.04606267
000250 eb dc b2 bd f4 09 c9 3c c0 6c 9e bd 30 97 a0 3c
       -0.08733543 0.024540879 -0.07735586 0.019603342
000260 30 dd 7b 3c 32 f8 8c bd 25 ad 50 bd 31 fb 5c bd
       0.015372559 -0.06883277 -0.050946373 -0.053950492
000270 a7 c8 70 bd 16 c4 a4 bd 80 89 d3 3c e0 9c 89 bc
       -0.058785107 -0.08045213 0.025822401 -0.016798437
000280 46 2f 91 bd 45 83 97 bd 28 4e 4e bc 5f af a1 3d
       -0.07089095 -0.073980846 -0.012591876 0.078947775
000290 ff b4 ad bd 18 f2 fe 3c d1 4a 4b bd 50 af ed bb
       -0.08481788 0.031121299 -0.049631897 -0.007253565
0002a0 c0 52 85 bd 45 5d 99 3d 0a 62 35 3d b3 6e 19 bd
       -0.06509924 0.07488493 0.04428295 -0.037459087
0002b0 f2 da 79 bd 40 ad a8 3a 60 4b a0 3c 64 f1 9e 3c
       -0.06099982 0.0012869015 0.019567192 0.019402213
0002c0 e6 9b ab bd b2 3b 3e 3d 3f 98 87 bd 88 ca 12 bc
       -0.08379345 0.04644365 -0.066208355 -0.00895942
0002d0 b0 60 49 bc fe ea 89 bd 0a 38 73 3d 0d 2a a1 3d
       -0.0122911185 -0.06734274 0.059379615 0.07869349
0002e0 bd 16 8b bd 38 a0 23 bd 2f db af bd b0 41 5f 3c
       -0.06791446 -0.03994772 -0.08586728 0.013626501
0002f0 04 93 9d bd 40 aa 66 bc 62 62 49 3d b3 75 9b bd
       -0.07694057 -0.014078677 0.04916609 -0.07590809
000300 e6 9f 6a 3d 70 7f a7 bc c5 ba b0 3d c1 82 a3 bd
       0.057281397 -0.02044651 0.086293735 -0.07983924
000310 18 8d 15 3d f5 cb ad 3d 64 af 85 bc 60 04 59 3b
       0.03651151 0.08486167 -0.016318984 0.003311418
000320 b8 3f e9 3c 19 7b ae 3d 60 d1 5f bb 60 84 52 bd
       0.028472766 0.08519573 -0.0034151897 -0.051395774
000330 86 2f b0 bd b7 30 9f 3d f8 ca a2 bd 00 3d 1b bc
       -0.086028144 0.077729635 -0.079488695 -0.009474993
000340 d4 0a f4 3c 80 08 f1 ba c4 f5 9a 3c 7b 36 86 3d
       0.02979032 -0.0018389374 0.018916018 0.0655336
000350 e4 a3 a2 3c f0 b0 d0 3c 9d 21 90 3d 4a eb 5d 3d
       0.01985354 0.025474995 0.07037661 0.054179467
000360 6c a5 49 bd 54 af c4 3c 2b b2 8c bd ac a7 ae 3c
       -0.049230024 0.024009384 -0.0686992 0.021320187
000370 b0 5e 76 bd cf b4 b3 3d 04 20 e3 3c 90 8d 80 bb
       -0.060148895 0.08774721 0.027725227 -0.0039231256
000380 90 9b d3 bb d0 df 8d 3b a0 a6 63 bd 90 fe 5c 3c
       -0.0064577535 0.004329659 -0.055578828 0.013488427
000390 46 db 73 bd 4d e1 31 bd c6 47 6b bd d2 b9 b3 bd
       -0.059535287 -0.043427754 -0.057441495 -0.08775677
0003a0 da 28 58 3d 34 d0 71 bd 50 de de bb d0 4c f8 3c
       0.052773334 -0.05903645 -0.006801404 0.030310065
0003b0 bf c4 4d bd 00 88 8c 38 60 de 80 3c 30 7f 0b 3c
       -0.05023646 6.701052e-05 0.015731037 0.008514211
0003c0 ce 5d f8 bc 44 8a 0c bd 22 36 1c 3d c6 de 06 bd
       -0.030318167 -0.034311548 0.038137563 -0.032927297
0003d0 b0 1b 29 3c 2e 66 6e 3d 80 9b a9 ba 26 25 5b 3d
       0.010321543 0.058202915 -0.0012940019 0.053502224
0003e0 20 74 02 3d 92 54 42 3d 33 60 9a 3d f2 64 17 3d
       0.031849027 0.047443934 0.0753788 0.036961503
0003f0 d0 ec 70 bc bd ce 84 3d c0 d0 be 3a fb 16 8c bd
       -0.014704898 0.06484745 0.0014558062 -0.06840321
